stereo_params.npz (npz, 4028 bytes, 13 tensors)

mtxL f8 [3, 3]
00000000: 526c 8a7a 0bd6 6740 0000 0000 0000 0000
00000010: 416d 1689 7575 6440 0000 0000 0000 0000
00000020: 70c7 eb30 c7c2 6740 dbf3 f00a 8415 5d40
00000030: 0000 0000 0000 0000 0000 0000 0000 0000
00000040: 0000 0000 0000 f03f
190.68890120540397 0.0 163.6705975950263 0.0 190.0868153195438 116.33618424921535 0.0 0.0
1.0

distL f8 [1, 5]
00000000: 8519 9bf2 8699 c03f 6c4b 1df6 d23c ddbf
00000010: 1060 5115 2a0c 7bbf f3aa 86ff 475c 803f
00000020: 70ed ee42 14ab dc3f
0.12968527647008102 -0.4568374064885379 -0.006603397739205277 0.007988512502227851 0.4479418424268351

mtxR f8 [3, 3]
00000000: 615a de1e 3094 6640 0000 0000 0000 0000
00000010: 6d2e 6227 d52d 6340 0000 0000 0000 0000
00000020: b44d 80a9 d074 6640 d898 0af4 abbe 5a40
00000030: 0000 0000 0000 0000 0000 0000 0000 0000
00000040: 0000 0000 0000 f03f
180.63087409427956 0.0 153.4322697560887 0.0 179.65047144946368 106.97924519572132 0.0 0.0
1.0

distR f8 [1, 5]
00000000: 4ac3 9a9e c4c9 9d3f 8dc7 5e44 2d97 bbbf
00000010: 11f1 f7e1 6455 7cbf ad68 0583 651a 81bf
00000020: 73c6 b0de 0d82 b63f
0.02908999650998404 -0.10777552527613761 -0.006917375634199156 -0.008351128636310124 0.08792196928768607

R f8 [3, 3]
00000000: 1435 cbaa eafb ef3f c657 632b d8fa 543f
00000010: e81e ad55 8626 a03f 4a37 a7ec 4a88 64bf
00000020: 0265 c7d7 c9f9 ef3f 156e 74a5 ace4 a33f
00000030: 6a46 c658 de1c a0bf 1936 57aa 7fec a3bf
00000040: 32de 8c08 bcf5 ef3f
0.9995015464607229 0.0012805090932963433 0.031543920477416 -0.002506395661135229 0.9992417540007923 0.03885402221405002 -0.031470249497158445 -0.038913716834582064
0.9987468878743526

T f8 [3, 1]
00000000: 30bb dd70 4e9b 0bc0 2837 0f98 6897 c03f
00000010: 214f f5a2 66e0 eabf
-3.4508332078616135 0.1296206228711807 -0.8398926909235095

E f8 [3, 3]
00000000: 3e3b d283 b454 79bf 59f6 85ff dcb1 ea3f
00000010: 80a3 5a3d 69bf c43f d22a 1367 9c56 eebf
00000020: 6258 85f6 7b53 c1bf 1e23 380b 315c 0b40
00000030: 24df fc7f c0f3 bebf 0ee1 e39e 4996 0bc0
00000040: b991 55ef 78af c1bf
-0.006184296738083015 0.8342118254365217 0.16209140296748714 -0.9480726254635903 -0.13536023652222 3.4200154186732012 -0.12090685963346154 -3.448382607774085
-0.13816749273531828

F f8 [3, 3]
00000000: e3d4 9c74 84b0 ad3e 0589 3cf9 1f63 1fbf
00000010: 29eb 7408 732c 833f c250 2a8d 56e0 213f
00000020: 6e2d 7e17 9e7b f43e 5a22 5030 3750 bebf
00000030: 3253 364e 86c2 87bf 542e f5e2 000e bb3f
00000040: 0000 0000 0000 f03f
8.848166796806527e-07 -0.00011973269129986551 0.009362124152735145 0.0001363855031583147 1.9533997572857555e-05 -0.11841149262921516 -0.011601495038840424 0.10568242588959126
1.0

R1 f8 [3, 3]
00000000: 66ab 5993 32d2 ee3f 4019 90a2 4dbb a6bf
00000010: 246c 8171 bdf9 d03f 5e84 ab29 df05 a43f
00000020: b27e a167 21f7 ef3f b65c 3977 11cd 993f
00000030: cdee b6ed 5c07 d1bf 4110 3035 0e75 8cbf
00000040: cf1a 05de e0d7 ee3f
0.9631588819441788 -0.04439776048097821 0.26524292072798716 0.03910729774157383 0.9989172958412011 0.025196335698947712 -0.26607440199198323 -0.01389514064613462
0.9638523422553024

R2 f8 [3, 3]
00000000: 3366 61fb 5612 ef3f 9a84 86a1 82ac a2bf
00000010: 9375 73b1 f93f ce3f 9d32 4615 2613 a53f
00000020: 8baa 4a7a 24f8 ef3f b4ed b397 9297 8ebf
00000030: 1d0a 8f00 b226 cebf 23cd f022 3ad0 983f
00000040: c4a9 6333 0217 ef3f
0.9709887418532105 -0.03647239896532391 0.2363273731670402 0.04116171846098846 0.9990408314236715 -0.014937539343455743 -0.23555588748247738 0.024231823332411594
0.9715586665818639

P1 f8 [3, 4]
00000000: ce7d 534f 8fd3 c340 0000 0000 0000 0000
00000010: 0000 00db 506f 7440 0000 0000 0000 0000
00000020: 0000 0000 0000 0000 ce7d 534f 8fd3 c340
00000030: 0000 d0fe 9fb9 6040 0000 0000 0000 0000
00000040: 0000 0000 0000 0000 0000 0000 0000 0000
00000050: 0000 0000 0000 f03f 0000 0000 0000 0000
10151.119608341625 0.0 326.9572401046753 0.0 0.0 10151.119608341625 133.80078068375587 0.0
0.0 0.0 1.0 0.0

P2 f8 [3, 4]
00000000: ce7d 534f 8fd3 c340 0000 0000 0000 0000
00000010: 0000 00db 506f 7440 7aa6 7932 8e9d e1c0
00000020: 0000 0000 0000 0000 ce7d 534f 8fd3 c340
00000030: 0000 d0fe 9fb9 6040 0000 0000 0000 0000
00000040: 0000 0000 0000 0000 0000 0000 0000 0000
00000050: 0000 0000 0000 f03f 0000 0000 0000 0000
10151.119608341625 0.0 326.9572401046753 -36076.44366152301 0.0 10151.119608341625 133.80078068375587 0.0
0.0 0.0 1.0 0.0

Q f8 [4, 4]
00000000: 0000 0000 0000 f03f 0000 0000 0000 0000
00000010: 0000 0000 0000 0000 0000 00db 506f 74c0
00000020: 0000 0000 0000 0000 0000 0000 0000 f03f
00000030: 0000 0000 0000 0000 0000 d0fe 9fb9 60c0
00000040: 0000 0000 0000 0000 0000 0000 0000 0000
00000050: 0000 0000 0000 0000 ce7d 534f 8fd3 c340
00000060: 0000 0000 0000 0000 0000 0000 0000 0000
00000070: 4c11 c81b 1902 d23f 0000 0000 0000 0080
1.0 0.0 0.0 -326.9572401046753 0.0 1.0 0.0 -133.80078068375587
0.0 0.0 0.0 10151.119608341625 0.0 0.0 0.2813780566505286 -0.0
